…
QR6argA1K074","executionInfo":{"status":"ok","timestamp":1714608513005,"user_tz":-480,"elapsed":340,"user":{"displayName":"Clarence Japinan","userId":"17006887550471247937"}},"colab":{"base_uri":"https://localhost:8080/"},"outputId":"085a93b2-0782-4789-a43c-e4db58aaaabf"},"outputs":[{"output_type":"stream","name":"stdout","text":["Model: \"sequential_7\"\n","_________________________________________________________________\n"," Layer (type)                Output Shape              Param #   \n","=================================================================\n"," rescaling_7 (Rescaling)     (None, 180, 180, 3)       0         \n","                                                                 \n"," conv2d_12 (Conv2D)          (None, 180, 180, 16)      448       \n","                                                                 \n"," max_pooling2d_12 (MaxPooli  (None, 90, 90, 16)        0         \n"," ng2D)                                                           \n","                                                                 \n"," conv2d_13 (Conv2D)          (None, 90, 90, 32)        4640      \n","                                                                 \n"," max_pooling2d_13 (MaxPooli  (None, 45, 45, 32)        0         \n"," ng2D)                                                           \n","                                                                 \n"," conv2d_14 (Conv2D)          (None, 45, 45, 64)        18496     \n","                                                                 \n"," max_pooling2d_14 (MaxPooli  (None, 22, 22, 64)        0         \n"," ng2D)                                                           \n","                                                                 \n"," flatten_4 (Flatten)         (None, 30976)             0         \n","                                                                 \n"," dense_6 (Dense)             (None, 128)               3965056   \n","                                                                 \n"," dense_7 (Dense)             (None, 2)                 258       \n","                                                                 \n","=================================================================\n","Total params: 3988898 (15.22 MB)\n","Trainable params: 3988898 (15.22 MB)\n","Non-trainable params: 0 (0.00 Byte)\n","_________________________________________________________________\n"]}],"source":["num_classes = len(class_names)\n","\n","model =
…
